models/cnn_model_fold14_optimized_quantized.tflite (tflite, 55304 bytes, 18 tensors)

tfl.pseudo_qconst1 i1 [5, 48] scale=0.010985274 zero_point=0
000000 e7 0a f6 f3 1b 1b e8 0a e8 05 05 13 07 f8 1c 0f
       -0.27463186 0.10985274 -0.10985274 -0.14280856 0.2966024 0.2966024 -0.26364657 0.10985274 -0.26364657 0.05492637 0.05492637 0.2087202 0.07689692 -0.08788219 0.30758768 0.16477911
000010 05 18 07 17 ea 09 e6 f3 18 db 12 01 ee e3 e5 eb
       0.05492637 0.26364657 0.07689692 0.2526613 -0.24167603 0.09886746 -0.2856171 -0.14280856 0.26364657 -0.40645513 0.19773492 0.010985274 -0.19773492 -0.31857294 -0.2966024 -0.23069075
000020 0f 0d 12 13 ec 4e ef f6 18 1e ff 15 16 ee 1b e8
       0.16477911 0.14280856 0.19773492 0.2087202 -0.21970548 0.85685134 -0.18674965 -0.10985274 0.26364657 0.32955822 -0.010985274 0.23069075 0.24167603 -0.19773492 0.2966024 -0.26364657
000030 13 f4 ea f1 08 05 15 fb 0b ef f9 02 0e f7 e4 1a
       0.2087202 -0.13182329 -0.24167603 -0.16477911 0.08788219 0.05492637 0.23069075 -0.05492637 0.120838016 -0.18674965 -0.07689692 0.021970548 0.15379384 -0.09886746 -0.30758768 0.2856171
000040 04 f8 fb eb e8 fd e7 15 fa 0d 00 de f3 07 f6 e5
       0.043941095 -0.08788219 -0.05492637 -0.23069075 -0.26364657 -0.03295582 -0.27463186 0.23069075 -0.06591164 0.14280856 0.0 -0.3734993 -0.14280856 0.07689692 -0.10985274 -0.2966024
000050 02 f3 12 0f fc 04 fa 02 1b f4 15 16 fd f1 f8 07
       0.021970548 -0.14280856 0.19773492 0.16477911 -0.043941095 0.043941095 -0.06591164 0.021970548 0.2966024 -0.13182329 0.23069075 0.24167603 -0.03295582 -0.16477911 -0.08788219 0.07689692
000060 1b e2 e4 e9 1a e7 15 1e 0d ff fd 12 ef 02 eb 19
       0.2966024 -0.32955822 -0.30758768 -0.2526613 0.2856171 -0.27463186 0.23069075 0.32955822 0.14280856 -0.010985274 -0.03295582 0.19773492 -0.18674965 0.021970548 -0.23069075 0.27463186
000070 d8 16 1c ed e5 f7 0b ec 02 13 f7 fe fa fc 00 ea
       -0.43941095 0.24167603 0.30758768 -0.2087202 -0.2966024 -0.09886746 0.120838016 -0.21970548 0.021970548 0.2087202 -0.09886746 -0.021970548 -0.06591164 -0.043941095 0.0 -0.24167603
000080 f0 0a e4 23 08 07 f1 f9 ec e6 eb f6 11 f7 e6 00
       -0.17576438 0.10985274 -0.30758768 0.3844846 0.08788219 0.07689692 -0.16477911 -0.07689692 -0.21970548 -0.2856171 -0.23069075 -0.10985274 0.18674965 -0.09886746 -0.2856171 0.0
000090 20 bc e8 16 0b e8 df 0c e4 1c ff db f3 0f e7 de
       0.35152876 -0.7469986 -0.26364657 0.24167603 0.120838016 -0.26364657 -0.36251405 0.13182329 -0.30758768 0.30758768 -0.010985274 -0.40645513 -0.14280856 0.16477911 -0.27463186 -0.3734993
0000a0 f6 24 16 19 05 18 f4 f7 f0 fb f7 18 fa 05 02 fc
       -0.10985274 0.39546984 0.24167603 0.27463186 0.05492637 0.26364657 -0.13182329 -0.09886746 -0.17576438 -0.05492637 -0.09886746 0.26364657 -0.06591164 0.05492637 0.021970548 -0.043941095
0000b0 ea f8 1a e3 0e 04 00 e3 0b fd 14 02 01 12 1e 13
       -0.24167603 -0.08788219 0.2856171 -0.31857294 0.15379384 0.043941095 0.0 -0.31857294 0.120838016 -0.03295582 0.21970548 0.021970548 0.010985274 0.19773492 0.32955822 0.2087202
0000c0 11 f0 ea 16 e8 f5 19 e2 e9 e4 e2 fa 1f 0b f3 0e
       0.18674965 -0.17576438 -0.24167603 0.24167603 -0.26364657 -0.120838016 0.27463186 -0.32955822 -0.2526613 -0.30758768 -0.32955822 -0.06591164 0.34054348 0.120838016 -0.14280856 0.15379384
0000d0 1c fb ff ff f7 e1 0b 0d f0 ed df 1e 0a f3 19 d5
       0.30758768 -0.05492637 -0.010985274 -0.010985274 -0.09886746 -0.34054348 0.120838016 0.14280856 -0.17576438 -0.2087202 -0.36251405 0.32955822 0.10985274 -0.14280856 0.27463186 -0.47236678
0000e0 23 07 ec 22 19 84 12 23 0b 81 10 ef f1 0e a1 ee
       0.3844846 0.07689692 -0.21970548 0.3734993 0.27463186 -1.3621739 0.19773492 0.3844846 0.120838016 -1.3951298 0.17576438 -0.18674965 -0.16477911 0.15379384 -1.043601 -0.19773492

tfl.pseudo_qconst3 i1 [16, 8] scale=0.010913304 zero_point=0
000000 e0 0e 17 f9 07 d8 2a 11 0c fa ee 00 0d d5 2b 2a
       -0.34922573 0.15278625 0.251006 -0.07639313 0.07639313 -0.43653217 0.45835876 0.18552616 0.13095964 -0.06547982 -0.19643947 0.0 0.14187296 -0.46927208 0.46927208 0.45835876
000010 07 01 0b 25 e1 1d ef cd 27 07 0a 40 ca d1 1a 33
       0.07639313 0.010913304 0.12004635 0.40379226 -0.33831242 0.31648582 -0.18552616 -0.5565785 0.42561886 0.07639313 0.10913304 0.69845146 -0.5893184 -0.51292527 0.2837459 0.5565785
000020 f6 15 f4 ff fd f2 01 fe 85 3f 81 87 13 29 6f ea
       -0.10913304 0.22917938 -0.13095964 -0.010913304 -0.03273991 -0.15278625 0.010913304 -0.021826608 -1.3423364 0.68753815 -1.3859897 -1.3205098 0.20735277 0.44744545 1.2113768 -0.2400927
000030 1c da f1 ff e2 db f8 00 f1 d6 13 2e f0 e7 ed 1b
       0.3055725 -0.41470554 -0.16369957 -0.010913304 -0.32739913 -0.40379226 -0.08730643 0.0 -0.16369957 -0.45835876 0.20735277 0.502012 -0.17461286 -0.2728326 -0.20735277 0.2946592
000040 1b e8 f7 04 f8 04 2f 02 e0 1b 8a a8 16 3e 5e f5
       0.2946592 -0.2619193 -0.09821974 0.043653216 -0.08730643 0.043653216 0.51292527 0.021826608 -0.34922573 0.2946592 -1.2877699 -0.9603708 0.2400927 0.67662483 1.0258505 -0.12004635
000050 03 14 fd f9 ea f8 15 d4 f9 02 1b 1d dd 27 da cd
       0.03273991 0.21826608 -0.03273991 -0.07639313 -0.2400927 -0.08730643 0.22917938 -0.4801854 -0.07639313 0.021826608 0.2946592 0.31648582 -0.38196564 0.42561886 -0.41470554 -0.5565785
000060 d5 27 f2 25 de f8 ea d3 1e 2d ec f5 e5 ec 25 10
       -0.46927208 0.42561886 -0.15278625 0.40379226 -0.37105232 -0.08730643 -0.2400927 -0.49109867 0.32739913 0.49109867 -0.21826608 -0.12004635 -0.2946592 -0.21826608 0.40379226 0.17461286
000070 c5 16 c0 b7 05 28 2b 31 25 fc df 04 f7 e9 ff d9
       -0.64388496 0.2400927 -0.69845146 -0.7966712 0.05456652 0.43653217 0.46927208 0.5347519 0.40379226 -0.043653216 -0.36013904 0.043653216 -0.09821974 -0.251006 -0.010913304 -0.42561886

tfl.pseudo_qconst4 i1 [8, 1] scale=0.0072580497 zero_point=0
000000 46 c3 6e 7f b3 85 b6 55
       0.5080635 -0.44274104 0.79838544 0.9217723 -0.55886984 -0.89274013 -0.53709567 0.61693424

tfl.pseudo_qconst6 i1 [32, 64] scale=0.0026183373 zero_point=0
000000 34 47 d5 41 c4 ad cb 57 d2 56 a8 3c 01 26 d0 59
       0.13615353 0.18590194 -0.1125885 0.17019193 -0.15710023 -0.21732199 -0.13877188 0.22779535 -0.120443515 0.225177 -0.23041368 0.15710023 0.0026183373 0.09949682 -0.1256802 0.23303202
000010 4d 4a bf 64 c0 f2 61 36 15 05 09 0e db 6f a0 49
       0.20161197 0.19375695 -0.17019193 0.26183373 -0.16757359 -0.036656722 0.25397873 0.14139022 0.054985084 0.013091686 0.023565035 0.036656722 -0.09687848 0.29063544 -0.2513604 0.19113863
000020 44 f0 e9 c1 4f d0 47 b3 55 ee b3 5b bf 6d 7c de
       0.17804694 -0.041893397 -0.060221758 -0.16495524 0.20684865 -0.1256802 0.18590194 -0.20161197 0.22255866 -0.04713007 -0.20161197 0.23826869 -0.17019193 0.28539875 0.32467383 -0.08902347
000030 0b 11 3c 5a 22 ca 4d e0 22 d3 f0 d8 53 3b dc 4c
       0.02880171 0.044511735 0.15710023 0.23565036 0.08902347 -0.14139022 0.20161197 -0.08378679 0.08902347 -0.11782518 -0.041893397 -0.10473349 0.21732199 0.1544819 -0.09426014 0.19899364
000040 00 97 95 39 c6 f4 36 01 dd 98 b3 ba 34 2a e1 32
       0.0 -0.2749254 -0.2801621 0.14924523 -0.15186356 -0.03142005 0.14139022 0.0026183373 -0.091641806 -0.27230707 -0.20161197 -0.18328361 0.13615353 0.10997017 -0.08116846 0.13091686
000050 3d dc 62 bf 07 bb 01 b0 4a c3 b2 2d 37 dc c8 d8
       0.15971857 -0.09426014 0.25659704 -0.17019193 0.018328361 -0.18066527 0.0026183373 -0.20946698 0.19375695 -0.15971857 -0.20423031 0.11782518 0.14400855 -0.09426014 -0.14662689 -0.10473349
000060 66 08 3a 01 b2 27 e9 07 bc 5a 98 d5 1e b6 a5 4a
       0.2670704 0.020946698 0.15186356 0.0026183373 -0.20423031 0.102115154 -0.060221758 0.018328361 -0.17804694 0.23565036 -0.27230707 -0.1125885 0.078550115 -0.19375695 -0.23826869 0.19375695
000070 2e a3 b8 10 fd 11 de 60 ae ef cd de 3a eb 0b 1d
       0.120443515 -0.24350537 -0.18852028 0.041893397 -0.007855012 0.044511735 -0.08902347 0.2513604 -0.21470366 -0.044511735 -0.1335352 -0.08902347 0.15186356 -0.054985084 0.02880171 0.07593178
000080 cb cb 3e 9f 17 4f ca 0c e9 f6 ef af 4d 1c ce ac
       -0.13877188 -0.13877188 0.16233692 -0.25397873 0.060221758 0.20684865 -0.14139022 0.03142005 -0.060221758 -0.026183372 -0.044511735 -0.21208532 0.20161197 0.073313445 -0.13091686 -0.21994033
000090 23 f9 14 ff f8 50 a6 1b be e2 3f 43 22 fb 17 b8
       0.091641806 -0.018328361 0.052366745 -0.0026183373 -0.020946698 0.20946698 -0.23565036 0.07069511 -0.17281026 -0.078550115 0.16495524 0.1754286 0.08902347 -0.013091686 0.060221758 -0.18852028
0000a0 5a be b2 f5 c8 cf 47 ee 4e a6 c4 ff e7 43 df c5
       0.23565036 -0.17281026 -0.20423031 -0.02880171 -0.14662689 -0.12829852 0.18590194 -0.04713007 0.20423031 -0.23565036 -0.15710023 -0.0026183373 -0.06545843 0.1754286 -0.08640513 -0.1544819
0000b0 b9 7e b3 33 34 45 b5 e8 55 1b f7 29 b3 bf 49 08
       -0.18590194 0.3299105 -0.20161197 0.1335352 0.13615353 0.18066527 -0.1963753 -0.0628401 0.22255866 0.07069511 -0.023565035 0.10735183 -0.20161197 -0.17019193 0.19113863 0.020946698
0000c0 d2 5a ee b2 9d bc bd f8 ef c8 16 59 35 ab 41 ac
       -0.120443515 0.23565036 -0.04713007 -0.20423031 -0.25921538 -0.17804694 -0.1754286 -0.020946698 -0.044511735 -0.14662689 0.05760342 0.23303202 0.13877188 -0.22255866 0.17019193 -0.21994033
0000d0 e1 bd d3 25 92 3f 2a 0e fe 15 a6 ca 23 4e 30 07
       -0.08116846 -0.1754286 -0.11782518 0.09687848 -0.2880171 0.16495524 0.10997017 0.036656722 -0.0052366746 0.054985084 -0.23565036 -0.14139022 0.091641806 0.20423031 0.1256802 0.018328361
0000e0 29 d3 9d 07 d7 d4 ab b9 ed 08 52 32 2f 62 20 c3
       0.10735183 -0.11782518 -0.25921538 0.018328361 -0.10735183 -0.11520684 -0.22255866 -0.18590194 -0.04974841 0.020946698 0.21470366 0.13091686 0.12306185 0.25659704 0.08378679 -0.15971857
0000f0 21 23 45 20 3e de 23 e1 65 ae d5 f5 d6 4b 0a f5
       0.08640513 0.091641806 0.18066527 0.08378679 0.16233692 -0.08902347 0.091641806 -0.08116846 0.26445207 -0.21470366 -0.1125885 -0.02880171 -0.10997017 0.1963753 0.026183372 -0.02880171

tfl.pseudo_qconst8 i1 [64, 1, 1, 32]
000000 15 28 f6 e5 ce e9 38 4c da 55 3a cb e2 f5 fb ba
       21 40 -10 -27 -50 -23 56 76 -38 85 58 -53 -30 -11 -5 -70
000010 2d d2 20 e1 3f ab 46 1e 43 93 14 7f 18 08 f0 de
       45 -46 32 -31 63 -85 70 30 67 -109 20 127 24 8 -16 -34
000020 26 b8 61 cf 06 ff 21 b4 4c f7 76 40 c8 7f 1c 63
       38 -72 97 -49 6 -1 33 -76 76 -9 118 64 -56 127 28 99
000030 fb da 34 43 05 1d e2 c2 55 2b eb dc 19 17 f5 ea
       -5 -38 52 67 5 29 -30 -62 85 43 -21 -36 25 23 -11 -22
000040 b3 09 0b 1f 02 fc d9 cc 25 ea 03 f6 35 df 4d 21
       -77 9 11 31 2 -4 -39 -52 37 -22 3 -10 53 -33 77 33
000050 9a f2 2e f3 e7 1b 2a bd 02 f8 fd 03 50 7f f6 d7
       -102 -14 46 -13 -25 27 42 -67 2 -8 -3 3 80 127 -10 -41
000060 ba 7f a0 c9 f5 32 2e 5c a6 eb f2 3b 1d f1 2a 90
       -70 127 -96 -55 -11 50 46 92 -90 -21 -14 59 29 -15 42 -112
000070 22 05 aa b6 f6 1c f7 dc c3 a3 e5 74 1a 2e cf 2a
       34 5 -86 -74 -10 28 -9 -36 -61 -93 -27 116 26 46 -49 42
000080 e0 c3 4d f6 7d 34 e4 c8 59 00 d0 f1 58 ba ea ed
       -32 -61 77 -10 125 52 -28 -56 89 0 -48 -15 88 -70 -22 -19
000090 cd cc 76 71 9d 01 81 64 cf 2f 12 9e b3 34 0a 47
       -51 -52 118 113 -99 1 -127 100 -49 47 18 -98 -77 52 10 71
0000a0 29 81 2b 3f e6 d2 ed ae b8 ef 59 0f 5d f2 f3 ba
       41 -127 43 63 -26 -46 -19 -82 -72 -17 89 15 93 -14 -13 -70
0000b0 df cf 3c 54 be 06 1c e3 04 26 d1 a9 f8 63 23 a5
       -33 -49 60 84 -66 6 28 -29 4 38 -47 -87 -8 99 35 -91
0000c0 38 bb 2d 9f 51 59 97 cc c3 bb f8 e2 ce 5d 32 4d
       56 -69 45 -97 81 89 -105 -52 -61 -69 -8 -30 -50 93 50 77
0000d0 85 7b 1f 1d 3b 31 ae c8 05 5d 12 c3 48 7f a1 19
       -123 123 31 29 59 49 -82 -56 5 93 18 -61 72 127 -95 25
0000e0 c7 bb 44 00 20 3e c9 36 b9 64 60 17 92 f6 18 4d
       -57 -69 68 0 32 62 -55 54 -71 100 96 23 -110 -10 24 77
0000f0 f5 ca c6 43 4c 7f e9 dc ff 77 ce d5 ed e4 06 dc
       -11 -54 -58 67 76 127 -23 -36 -1 119 -50 -43 -19 -28 6 -36

tfl.pseudo_qconst10 i1 [1, 1, 15, 32]
000000 3e f4 9b 7f 7f e7 2a 76 81 42 69 25 83 44 7f d1
       62 -12 -101 127 127 -25 42 118 -127 66 105 37 -125 68 127 -47
000010 72 81 a4 df 8e 7f 7b 29 e5 6c c1 6e b4 53 3e e1
       114 -127 -92 -33 -114 127 123 41 -27 108 -63 110 -76 83 62 -31
000020 46 10 ce 2d 43 14 a9 7f d8 51 45 22 b4 3b 54 cd
       70 16 -50 45 67 20 -87 127 -40 81 69 34 -76 59 84 -51
000030 4d 0b 04 f5 ab 42 65 7f 1f 51 5e b3 41 62 7f e2
       77 11 4 -11 -85 66 101 127 31 81 94 -77 65 98 127 -30
000040 0c 20 e2 12 16 27 44 48 e9 52 2a ad ba 60 13 be
       12 32 -30 18 22 39 68 72 -23 82 42 -83 -70 96 19 -66
000050 27 f2 51 e9 b4 28 17 2f e7 34 30 8c 15 33 66 81
       39 -14 81 -23 -76 40 23 47 -25 52 48 -116 21 51 102 -127
000060 03 7f ca 51 3a 4b 35 43 f9 3c 1b 35 fb 4d 41 06
       3 127 -54 81 58 75 53 67 -7 60 27 53 -5 77 65 6
000070 4b db 44 81 c1 0c 59 f9 ab 31 09 a7 39 31 55 a8
       75 -37 68 -127 -63 12 89 -7 -85 49 9 -89 57 49 85 -88
000080 81 52 db fc 05 6e 81 28 bf 22 28 9b bd 07 59 c7
       -127 82 -37 -4 5 110 -127 40 -65 34 40 -101 -67 7 89 -57
000090 1e eb 3c a7 dd 17 3c f3 cd 1e 32 6e 13 25 6f a5
       30 -21 60 -89 -35 23 60 -13 -51 30 50 110 19 37 111 -91
0000a0 94 ba ed 41 2d 33 ec 0a d8 0c 27 ca 00 75 09 f5
       -108 -70 -19 65 45 51 -20 10 -40 12 39 -54 0 117 9 -11
0000b0 31 30 20 1b c5 35 27 20 cc 20 3c 66 1a 45 41 10
       49 48 32 27 -59 53 39 32 -52 32 60 102 26 69 65 16
0000c0 0d 96 fc 18 e8 03 4b 10 cf 50 1b f3 05 0b 52 de
       13 -106 -4 24 -24 3 75 16 -49 80 27 -13 5 11 82 -34
0000d0 39 c2 6c ac c3 2f 38 1c cb 2e 23 25 14 40 40 26
       57 -62 108 -84 -61 47 56 28 -53 46 35 37 20 64 64 38
0000e0 09 13 d3 3f 0a fa cb 19 15 49 f1 b1 e1 2b f6 f9
       9 19 -45 63 10 -6 -53 25 21 73 -15 -79 -31 43 -10 -7
0000f0 2f f9 38 f8 cf 1c 3a 10 05 0a f8 81 1d 16 40 21
       47 -7 56 -8 -49 28 58 16 5 10 -8 -127 29 22 64 33

tfl.pseudo_qconst12 i1 [32, 1, 1, 64]
000000 f4 0b d3 3c f7 d2 f6 e7 59 0e dd 5c c7 dc a9 a6
       -12 11 -45 60 -9 -46 -10 -25 89 14 -35 92 -57 -36 -87 -90
000010 b8 a4 a5 59 47 73 4f 25 27 3f d5 e3 68 d9 d4 54
       -72 -92 -91 89 71 115 79 37 39 63 -43 -29 104 -39 -44 84
000020 10 48 2f 31 45 e1 78 e2 78 86 c5 fd 21 94 d3 ed
       16 72 47 49 69 -31 120 -30 120 -122 -59 -3 33 -108 -45 -19
000030 19 15 81 bd da f8 2a 41 d7 a1 d9 f7 5f d7 43 f8
       25 21 -127 -67 -38 -8 42 65 -41 -95 -39 -9 95 -41 67 -8
000040 7f 1a 93 b2 ed a6 fb d7 32 30 ef e6 39 b9 ec 47
       127 26 -109 -78 -19 -90 -5 -41 50 48 -17 -26 57 -71 -20 71
000050 e8 ea 34 bc 21 1f d6 b4 1d 3f d7 32 fa d3 db ad
       -24 -22 52 -68 33 31 -42 -76 29 63 -41 50 -6 -45 -37 -83
000060 df e0 b9 1d 35 34 bd 1a de f1 2d 10 08 fd 43 f7
       -33 -32 -71 29 53 52 -67 26 -34 -15 45 16 8 -3 67 -9
000070 4b b5 f5 d7 2d e0 01 b2 db 31 9c 5d 48 14 4b 52
       75 -75 -11 -41 45 -32 1 -78 -37 49 -100 93 72 20 75 82
000080 f9 bb c6 a8 1d e8 5f 37 e4 d3 c3 0e 91 3f 45 96
       -7 -69 -58 -88 29 -24 95 55 -28 -45 -61 14 -111 63 69 -106
000090 53 3e fa a7 25 e2 b8 de 32 b7 c6 57 4d c3 82 53
       83 62 -6 -89 37 -30 -72 -34 50 -73 -58 87 77 -61 -126 83
0000a0 3f a9 b2 20 44 05 5b 5a f4 64 81 03 24 2c 20 d0
       63 -87 -78 32 68 5 91 90 -12 100 -127 3 36 44 32 -48
0000b0 02 67 5d 9a 04 d1 47 c8 e6 c2 09 dc 96 ad 15 cd
       2 103 93 -102 4 -47 71 -56 -26 -62 9 -36 -106 -83 21 -51
0000c0 9f 3c 4e c3 fa bc c3 53 5b 81 52 a7 f2 cb fe 2a
       -97 60 78 -61 -6 -68 -61 83 91 -127 82 -89 -14 -53 -2 42
0000d0 13 00 2c 43 d8 4a 25 64 2a e8 b1 26 40 9e 68 12
       19 0 44 67 -40 74 37 100 42 -24 -79 38 64 -98 104 18
0000e0 f2 e8 43 c3 c6 ed d9 11 2f 3a 0e 16 c3 05 84 c7
       -14 -24 67 -61 -58 -19 -39 17 47 58 14 22 -61 5 -124 -57
0000f0 3f 43 01 b7 25 28 bc 51 cc e2 d6 f6 ef b2 0d 27
       63 67 1 -73 37 40 -68 81 -52 -30 -42 -10 -17 -78 13 39

tfl.pseudo_qconst14 i1 [64, 1, 1, 32]
000000 7f d0 1a f9 e9 00 de ec 02 0e 1e df d6 1d f7 e4
       127 -48 26 -7 -23 0 -34 -20 2 14 30 -33 -42 29 -9 -28
000010 c6 28 df 0b f7 c7 cc f3 36 e4 21 dc e7 50 08 24
       -58 40 -33 11 -9 -57 -52 -13 54 -28 33 -36 -25 80 8 36
000020 17 0d d1 dc 4a f5 dd e3 05 cc 22 06 f5 f7 00 b8
       23 13 -47 -36 74 -11 -35 -29 5 -52 34 6 -11 -9 0 -72
000030 30 a9 34 d6 d1 fe de dc c9 87 16 1c d9 1c 40 7f
       48 -87 52 -42 -47 -2 -34 -36 -55 -121 22 28 -39 28 64 127
000040 9c ee e0 e5 e1 28 e6 26 17 a6 b1 54 3a dc a7 c1
       -100 -18 -32 -27 -31 40 -26 38 23 -90 -79 84 58 -36 -89 -63
000050 06 ad 96 e9 d7 7f 14 db e0 59 21 d8 e4 30 b8 21
       6 -83 -106 -23 -41 127 20 -37 -32 89 33 -40 -28 48 -72 33
000060 c8 be 7f 19 3d ca b8 d7 bb 07 0f cc c2 58 d8 11
       -56 -66 127 25 61 -54 -72 -41 -69 7 15 -52 -62 88 -40 17
000070 c6 4e ee e0 16 19 f8 18 b9 f1 de d4 c8 cb ed ca
       -58 78 -18 -32 22 25 -8 24 -71 -15 -34 -44 -56 -53 -19 -54
000080 c3 59 2e 33 f2 84 7f 3d 69 ca 30 28 10 e6 7e db
       -61 89 46 51 -14 -124 127 61 105 -54 48 40 16 -26 126 -37
000090 0f de 53 42 dc 20 27 64 a3 24 fe a2 6f f3 d9 93
       15 -34 83 66 -36 32 39 100 -93 36 -2 -94 111 -13 -39 -109
0000a0 b7 c6 03 26 c8 44 fb bb 4d 7f cf cd 2f dc dd e2
       -73 -58 3 38 -56 68 -5 -69 77 127 -49 -51 47 -36 -35 -30
0000b0 1e a5 36 dd 32 2d 5f 61 f8 f2 1a db 2d f1 c4 53
       30 -91 54 -35 50 45 95 97 -8 -14 26 -37 45 -15 -60 83
0000c0 f3 81 23 c4 2c e8 49 59 c5 27 41 d7 9d ab 0e 50
       -13 -127 35 -60 44 -24 73 89 -59 39 65 -41 -99 -85 14 80
0000d0 b9 4d de bf 63 bd e9 f9 c5 58 44 1d 64 34 f7 eb
       -71 77 -34 -65 99 -67 -23 -7 -59 88 68 29 100 52 -9 -21
0000e0 d2 d3 d3 0b 4c b1 ff e9 27 ad f5 e6 19 a9 7f 17
       -46 -45 -45 11 76 -79 -1 -23 39 -83 -11 -26 25 -87 127 23
0000f0 bd 06 16 c1 2c e5 ef 3d b1 3b 35 1a 44 01 4c 1d
       -67 6 22 -63 44 -27 -17 61 -79 59 53 26 68 1 76 29

tfl.pseudo_qconst16 i1 [1, 1, 10, 32]
000000 b4 81 63 31 43 83 a5 76 7f 5f 38 b4 2f 7f 81 d3
       -76 -127 99 49 67 -125 -91 118 127 95 56 -76 47 127 -127 -45
000010 30 f5 4e 7f ba 7f 4a 81 02 81 7f 81 2b 7a 5e 81
       48 -11 78 127 -70 127 74 -127 2 -127 127 -127 43 122 94 -127
000020 de 16 5e 81 2d ba 3d 81 fd 1c 6c 81 e2 4e df 40
       -34 22 94 -127 45 -70 61 -127 -3 28 108 -127 -30 78 -33 64
000030 20 b4 f0 3e 7f 5c 7f bc 5f c0 d2 91 ff ce 37 bc
       32 -76 -16 62 127 92 127 -68 95 -64 -46 -111 -1 -50 55 -68
000040 1b cf 6f 95 fe d6 a3 54 62 7f 9e fb 96 5d cb 02
       27 -49 111 -107 -2 -42 -93 84 98 127 -98 -5 -106 93 -53 2
000050 01 cd 57 10 87 01 50 ca 13 c0 cf de 74 21 2d a2
       1 -51 87 16 -121 1 80 -54 19 -64 -49 -34 116 33 45 -94
000060 5d ca ed 50 50 ac 55 9c 1b 2d b8 c3 c6 7a c8 14
       93 -54 -19 80 80 -84 85 -100 27 45 -72 -61 -58 122 -56 20
000070 3a 55 0a f5 37 52 11 40 10 d3 53 14 34 24 03 cc
       58 85 10 -11 55 82 17 64 16 -45 83 20 52 36 3 -52
000080 10 eb f7 b0 1d c1 13 15 2a 03 9f 83 44 c3 e3 47
       16 -21 -9 -80 29 -63 19 21 42 3 -97 -125 68 -61 -29 71
000090 81 81 fe 49 f2 61 20 c3 51 da f8 cd c8 c6 dc ae
       -127 -127 -2 73 -14 97 32 -61 81 -38 -8 -51 -56 -58 -36 -82
0000a0 a3 e0 47 8f e0 e2 3b 2a e7 e0 c1 e7 35 75 22 05
       -93 -32 71 -113 -32 -30 59 42 -25 -32 -63 -25 53 117 34 5
0000b0 3a f5 f4 f0 da 33 6c ce 20 d8 ff 3e 1a f7 af 94
       58 -11 -12 -16 -38 51 108 -50 32 -40 -1 62 26 -9 -81 -108
0000c0 ad dc 50 fb a1 04 24 f9 18 17 81 cf 0e 48 16 44
       -83 -36 80 -5 -95 4 36 -7 24 23 -127 -49 14 72 22 68
0000d0 13 44 60 b7 bc 34 de fb fc ff e7 01 b1 6a 3a ad
       19 68 96 -73 -68 52 -34 -5 -4 -1 -25 1 -79 106 58 -83
0000e0 89 ee 61 22 81 ae ce 85 29 2b ba c4 f0 59 1d 45
       -119 -18 97 34 -127 -82 -50 -123 41 43 -70 -60 -16 89 29 69
0000f0 06 95 0f 30 4b b0 ea 06 56 e9 1e e2 81 ff 17 be
       6 -107 15 48 75 -80 -22 6 86 -23 30 -30 -127 -1 23 -66

tfl.pseudo_qconst18 i1 [32, 1, 1, 64]
000000 1d 2a 05 41 af ed d9 bf 57 fc 0a 81 28 13 d9 41
       29 42 5 65 -81 -19 -39 -65 87 -4 10 -127 40 19 -39 65
000010 b3 0e 37 e7 11 a3 2f c8 d7 41 4a 5b 14 51 2f 0a
       -77 14 55 -25 17 -93 47 -56 -41 65 74 91 20 81 47 10
000020 aa 18 ce 84 b1 24 f0 21 00 f8 ab 1e af 74 e4 14
       -86 24 -50 -124 -79 36 -16 33 0 -8 -85 30 -81 116 -28 20
000030 f7 cb ee aa 05 38 25 c0 02 22 93 30 0d f6 2f 06
       -9 -53 -18 -86 5 56 37 -64 2 34 -109 48 13 -10 47 6
000040 f5 dc 36 ea b3 1c 4c 0e 36 36 c8 6c 81 cb d2 b0
       -11 -36 54 -22 -77 28 76 14 54 54 -56 108 -127 -53 -46 -80
000050 2d 30 02 d5 0d dc f1 6c 4b dd e8 bc 6d ff 02 1e
       45 48 2 -43 13 -36 -15 108 75 -35 -24 -68 109 -1 2 30
000060 62 bb 5f 06 1f f8 bf 47 d6 c1 28 46 30 13 57 aa
       98 -69 95 6 31 -8 -65 71 -42 -63 40 70 48 19 87 -86
000070 bd c4 ec 00 e3 ab 28 d1 dd ce 1b 2b ba 16 be c5
       -67 -60 -20 0 -29 -85 40 -47 -35 -50 27 43 -70 22 -66 -59
000080 dc d3 a1 99 70 f1 f6 cc e2 ca e3 b7 85 c8 4f 5e
       -36 -45 -95 -103 112 -15 -10 -52 -30 -54 -29 -73 -123 -56 79 94
000090 1b 96 d6 d2 c2 9d 81 a5 40 55 da 50 61 47 00 4c
       27 -106 -42 -46 -62 -99 -127 -91 64 85 -38 80 97 71 0 76
0000a0 c4 eb 62 53 38 2b ef d0 bd f0 ad ff 35 44 b2 b1
       -60 -21 98 83 56 43 -17 -48 -67 -16 -83 -1 53 68 -78 -79
0000b0 1e d8 2b 5b ba 27 ed 4b 10 3a 11 25 dc 05 d8 29
       30 -40 43 91 -70 39 -19 75 16 58 17 37 -36 5 -40 41
0000c0 ca cd e4 23 2d bb be 2b d9 ee fd 13 f2 f7 ea 0b
       -54 -51 -28 35 45 -69 -66 43 -39 -18 -3 19 -14 -9 -22 11
0000d0 81 0a d4 e7 b4 21 74 ef 3c 06 09 de 17 21 cb 01
       -127 10 -44 -25 -76 33 116 -17 60 6 9 -34 23 33 -53 1
0000e0 1c 29 26 da 68 ea a5 b0 ef 16 25 5d 1d 4b b7 40
       28 41 38 -38 104 -22 -91 -80 -17 22 37 93 29 75 -73 64
0000f0 a3 ee 42 dd 44 bb 10 b7 f6 ca cc 09 18 34 51 0a
       -93 -18 66 -35 68 -69 16 -73 -10 -54 -52 9 24 52 81 10

tfl.pseudo_qconst20 i1 [64, 1, 1, 32]
000000 3e 26 c9 96 33 11 bc e2 32 cf e4 81 08 13 ba ea
       62 38 -55 -106 51 17 -68 -30 50 -49 -28 -127 8 19 -70 -22
000010 e2 a7 39 bb 2c ed c0 03 c1 ca ab 0e 3c 2c e0 2e
       -30 -89 57 -69 44 -19 -64 3 -63 -54 -85 14 60 44 -32 46
000020 5b c1 c4 d2 14 49 b3 f0 37 27 69 52 a9 58 3e a4
       91 -63 -60 -46 20 73 -77 -16 55 39 105 82 -87 88 62 -92
000030 02 a5 3e cb c1 e2 e4 f1 7b 7f 2b 96 08 06 74 52
       2 -91 62 -53 -63 -30 -28 -15 123 127 43 -106 8 6 116 82
000040 55 92 d8 25 dc b0 b9 d6 29 db d5 46 d4 d1 c7 2a
       85 -110 -40 37 -36 -80 -71 -42 41 -37 -43 70 -44 -47 -57 42
000050 dd c3 27 2f ea f3 dd fd 17 e0 f8 d4 81 a1 1c 3e
       -35 -61 39 47 -22 -13 -35 -3 23 -32 -8 -44 -127 -95 28 62
000060 42 3a 3f 56 a3 d0 76 d1 5a 0a d5 e1 f1 7f a8 1c
       66 58 63 86 -93 -48 118 -47 90 10 -43 -31 -15 127 -88 28
000070 fe c6 3e e9 19 e2 35 f8 f3 f1 40 82 b2 2f 06 5e
       -2 -58 62 -23 25 -30 53 -8 -13 -15 64 -126 -78 47 6 94
000080 f1 b3 17 93 09 ff 51 34 18 50 1d 85 be 1c da ed
       -15 -77 23 -109 9 -1 81 52 24 80 29 -123 -66 28 -38 -19
000090 db ef 56 bf 2b 15 03 0b 7f 4d 31 c6 30 1d d5 e2
       -37 -17 86 -65 43 21 3 11 127 77 49 -58 48 29 -43 -30
0000a0 a9 1e d2 e2 d6 bc ed 32 17 2c 0a ca 0b e5 38 9f
       -87 30 -46 -30 -42 -68 -19 50 23 44 10 -54 11 -27 56 -97
0000b0 c5 7f 38 e7 46 f5 0b 22 1a c5 48 c7 cd 0f f9 19
       -59 127 56 -25 70 -11 11 34 26 -59 72 -57 -51 15 -7 25
0000c0 88 e4 7f ba 92 c4 74 04 a4 03 b4 f7 28 d9 eb eb
       -120 -28 127 -70 -110 -60 116 4 -92 3 -76 -9 40 -39 -21 -21
0000d0 0f 01 00 0f 0e 1d c0 fd eb a7 f5 bf cf 40 b2 3c
       15 1 0 15 14 29 -64 -3 -21 -89 -11 -65 -49 64 -78 60
0000e0 81 a7 64 fb 2d f7 50 a4 52 91 4d 1a 39 f3 a3 51
       -127 -89 100 -5 45 -9 80 -92 82 -111 77 26 57 -13 -93 81
0000f0 69 bb e1 d2 ca bd 61 91 5e 09 be 4e 42 8f e2 16
       105 -69 -31 -46 -54 -67 97 -111 94 9 -66 78 66 -113 -30 22

tfl.pseudo_qconst22 i1 [1, 1, 7, 32]
000000 4c b0 7f 81 cb 43 3c 96 e1 64 92 d7 5e 50 c5 1c
       76 -80 127 -127 -53 67 60 -106 -31 100 -110 -41 94 80 -59 28
000010 38 6e 90 f3 d2 09 6c e0 30 59 a6 8c 52 c2 e4 7f
       56 110 -112 -13 -46 9 108 -32 48 89 -90 -116 82 -62 -28 127
000020 c0 02 0b f0 99 7f 39 81 ca 2e f5 09 35 bc bf 81
       -64 2 11 -16 -103 127 57 -127 -54 46 -11 9 53 -68 -65 -127
000030 df b6 7f 40 0c 81 a0 81 54 3e 0b 81 05 eb e3 6d
       -33 -74 127 64 12 -127 -96 -127 84 62 11 -127 5 -21 -29 109
000040 42 81 5d 1f bd 37 ee f4 29 c5 be 20 0f 81 9e c2
       66 -127 93 31 -67 55 -18 -12 41 -59 -66 32 15 -127 -98 -62
000050 a9 7f fa f3 14 9e 00 a2 9d 7f ac 1d 97 0e 44 64
       -87 127 -6 -13 20 -98 0 -94 -99 127 -84 29 -105 14 68 100
000060 51 0d 2b f4 54 04 30 0c dd e1 b0 25 7f f7 da 08
       81 13 43 -12 84 4 48 12 -35 -31 -80 37 127 -9 -38 8
000070 81 9e b6 27 fc 0b 81 c5 bb f6 cf e2 90 c4 7f 53
       -127 -98 -74 39 -4 11 -127 -59 -69 -10 -49 -30 -112 -60 127 83
000080 81 4e 1b cb 5b cf cf c2 c0 53 77 12 bb 55 81 01
       -127 78 27 -53 91 -49 -49 -62 -64 83 119 18 -69 85 -127 1
000090 d5 46 15 ed 39 d7 e9 94 c1 c4 c9 a7 7f e1 ea 68
       -43 70 21 -19 57 -41 -23 -108 -63 -60 -55 -89 127 -31 -22 104
0000a0 c3 63 30 a8 bf d3 7f 04 12 c4 0f 7f 5d 49 d8 b9
       -61 99 48 -88 -65 -45 127 4 18 -60 15 127 93 73 -40 -71
0000b0 23 00 01 7f 7f 16 ff 25 7f 8f e2 57 5f d4 13 0f
       35 0 1 127 127 22 -1 37 127 -113 -30 87 95 -44 19 15
0000c0 47 d7 7c c7 81 b0 6c 54 7f 7f 81 1c 2d aa bd ee
       71 -41 124 -57 -127 -80 108 84 127 127 -127 28 45 -86 -67 -18
0000d0 b2 5a 91 0c fc 41 9b 82 74 86 81 c8 1a 81 b8 15
       -78 90 -111 12 -4 65 -101 -126 116 -122 -127 -56 26 -127 -72 21

tfl.pseudo_qconst24 i1 [32, 1, 1, 64]
000000 e4 36 db 17 b1 f9 01 e4 a3 3d 16 be bf 36 e0 c3
       -28 54 -37 23 -79 -7 1 -28 -93 61 22 -66 -65 54 -32 -61
000010 88 07 13 ba f8 f9 dd da 3d c1 4c 42 d9 2b 02 a0
       -120 7 19 -70 -8 -7 -35 -38 61 -63 76 66 -39 43 2 -96
000020 e7 c0 36 1b 94 25 85 b8 b0 ac 4f 97 e7 28 dd d3
       -25 -64 54 27 -108 37 -123 -72 -80 -84 79 -105 -25 40 -35 -45
000030 1f 07 a8 e3 9c 9d c7 3c c2 81 d3 44 bb 06 ac f3
       31 7 -88 -29 -100 -99 -57 60 -62 -127 -45 68 -69 6 -84 -13
000040 ce 31 d7 ad b0 69 00 b6 f7 31 c9 17 2b cb 8b 42
       -50 49 -41 -83 -80 105 0 -74 -9 49 -55 23 43 -53 -117 66
000050 ea e4 57 cc f4 bf dd 32 a2 92 da cb 8d 4e e5 39
       -22 -28 87 -52 -12 -65 -35 50 -94 -110 -38 -53 -115 78 -27 57
000060 a8 d0 cc e9 81 37 d0 c6 ef 0f 50 c0 6d 4b fa a6
       -88 -48 -52 -23 -127 55 -48 -58 -17 15 80 -64 109 75 -6 -90
000070 57 bf 15 21 27 f2 2a ba b7 76 eb 3f 67 fe 48 d4
       87 -65 21 33 39 -14 42 -70 -73 118 -21 63 103 -2 72 -44
000080 46 2a 0b ca ea f2 fa 23 9f c8 c7 1a dd db 2d 19
       70 42 11 -54 -22 -14 -6 35 -97 -56 -57 26 -35 -37 45 25
000090 66 24 90 23 ec e1 1a 6d ce 49 f2 d6 1b 42 21 e4
       102 36 -112 35 -20 -31 26 109 -50 73 -14 -42 27 66 33 -28
0000a0 16 38 14 27 d4 81 b2 56 2f cb b5 bd e4 26 8e a8
       22 56 20 39 -44 -127 -78 86 47 -53 -75 -67 -28 38 -114 -88
0000b0 ad 79 35 2a 1c 47 ab 06 bd 2a f8 4a 16 65 ec 00
       -83 121 53 42 28 71 -85 6 -67 42 -8 74 22 101 -20 0
0000c0 11 48 05 e7 2f 58 65 24 aa b6 40 d1 a5 4e 39 d8
       17 72 5 -25 47 88 101 36 -86 -74 64 -47 -91 78 57 -40
0000d0 7f d1 10 fa c9 c8 45 fe 2a 26 ce dc ef b3 8b da
       127 -47 16 -6 -55 -56 69 -2 42 38 -50 -36 -17 -77 -117 -38
0000e0 fc 0c fc e9 25 ca 1e ad 3d e3 24 93 fe 02 bf 4e
       -4 12 -4 -23 37 -54 30 -83 61 -29 36 -109 -2 2 -65 78
0000f0 d5 99 6e 0e b8 64 c2 bc ca 34 53 47 fd 0e 33 a8
       -43 -103 110 14 -72 100 -62 -68 -54 52 83 71 -3 14 51 -88

tfl.pseudo_qconst26 i1 [64, 1, 1, 8]
000000 30 e2 ca 3d ec c1 eb 81 45 b3 d2 af 56 27 35 81
       48 -30 -54 61 -20 -63 -21 -127 69 -77 -46 -81 86 39 53 -127
000010 f6 0b 3c f6 a4 81 d2 c8 a6 6d e0 d4 81 67 d3 8e
       -10 11 60 -10 -92 -127 -46 -56 -90 109 -32 -44 -127 103 -45 -114
000020 02 81 3d 9e 34 c9 4e f5 22 8f 0e 0a 81 ba 0f d2
       2 -127 61 -98 52 -55 78 -11 34 -113 14 10 -127 -70 15 -46
000030 e4 06 81 74 39 4b 14 5d c5 15 b4 39 a5 0c 7f e3
       -28 6 -127 116 57 75 20 93 -59 21 -76 57 -91 12 127 -29
000040 e2 81 7d bd bc b7 6e 93 29 5a 9d a6 e6 22 81 12
       -30 -127 125 -67 -68 -73 110 -109 41 90 -99 -90 -26 34 -127 18
000050 83 7f a9 b1 4d ff 9a 69 8b bd 83 bb 7f f0 07 92
       -125 127 -87 -79 77 -1 -102 105 -117 -67 -125 -69 127 -16 7 -110
000060 45 41 f5 d6 7f 04 27 e0 de 7f 2f 45 fd c1 ce e0
       69 65 -11 -42 127 4 39 -32 -34 127 47 69 -3 -63 -50 -32
000070 81 49 7e 68 0e 24 4a f6 47 81 e9 4a 22 b5 c5 44
       -127 73 126 104 14 36 74 -10 71 -127 -23 74 34 -75 -59 68
000080 81 76 b0 35 69 d4 98 4c b8 99 e1 e0 90 78 81 68
       -127 118 -80 53 105 -44 -104 76 -72 -103 -31 -32 -112 120 -127 104
000090 0f 81 bf ad 0f 30 05 3c 8b 6f 7f 3b ef 2a 31 57
       15 -127 -65 -83 15 48 5 60 -117 111 127 59 -17 42 49 87
0000a0 30 37 e1 f6 8f 7f a6 5b d5 4b 10 1d b7 28 60 7f
       48 55 -31 -10 -113 127 -90 91 -43 75 16 29 -73 40 96 127
0000b0 45 bb 5c 07 d6 7f fe df 81 00 0a 20 76 fd ae 52
       69 -69 92 7 -42 127 -2 -33 -127 0 10 32 118 -3 -82 82
0000c0 4d f7 cf ee 26 7f 03 f0 81 d7 ce 26 2d c8 60 33
       77 -9 -49 -18 38 127 3 -16 -127 -41 -50 38 45 -56 96 51
0000d0 02 d3 b5 8b 7f 60 87 5e 0a ae ca ac df 3e fb 81
       2 -45 -75 -117 127 96 -121 94 10 -82 -54 -84 -33 62 -5 -127
0000e0 9d d5 71 85 be 7f c9 38 ca 91 81 10 df 4c a8 c5
       -99 -43 113 -123 -66 127 -55 56 -54 -111 -127 16 -33 76 -88 -59
0000f0 c0 3b 0f 71 c3 3a 7f 3c 3f ec 04 4c 5b 57 04 7f
       -64 59 15 113 -61 58 127 60 63 -20 4 76 91 87 4 127

tfl.pseudo_qconst28 i1 [64, 1, 1, 32]
000000 0c 7f bc 06 48 bb 53 aa 36 f4 b9 48 05 fd 56 c0
       12 127 -68 6 72 -69 83 -86 54 -12 -71 72 5 -3 86 -64
000010 f8 fe 17 63 a3 8b 9e 42 0c 65 fd b3 1f 31 9a cc
       -8 -2 23 99 -93 -117 -98 66 12 101 -3 -77 31 49 -102 -52
000020 e0 cc ac e3 cd d7 46 33 02 39 d9 b9 7f 2c 3a f5
       -32 -52 -84 -29 -51 -41 70 51 2 57 -39 -71 127 44 58 -11
000030 5a 25 eb 3f 25 ff db 25 4e ca 61 18 cc fd ca f4
       90 37 -21 63 37 -1 -37 37 78 -54 97 24 -52 -3 -54 -12
000040 c5 1d 7f d3 00 27 f1 f3 ec cc f0 ec 59 b8 a4 f3
       -59 29 127 -45 0 39 -15 -13 -20 -52 -16 -20 89 -72 -92 -13
000050 db 4e 52 33 2c ec dd 44 19 a0 a2 b0 50 18 21 2f
       -37 78 82 51 44 -20 -35 68 25 -96 -94 -80 80 24 33 47
000060 fd 2c 33 57 aa f9 b3 a5 e5 eb 9d cf cc 2f 99 c8
       -3 44 51 87 -86 -7 -77 -91 -27 -21 -99 -49 -52 47 -103 -56
000070 21 03 72 b6 c5 ed cc 4d 09 26 a2 5d b3 cf 81 fd
       33 3 114 -74 -59 -19 -52 77 9 38 -94 93 -77 -49 -127 -3
000080 a2 b1 11 b9 f6 19 9a db fb ed 9e f2 9a 45 0d a7
       -94 -79 17 -71 -10 25 -102 -37 -5 -19 -98 -14 -102 69 13 -89
000090 97 10 6a d5 e0 81 63 40 34 44 2a f7 2c 04 e8 f4
       -105 16 106 -43 -32 -127 99 64 52 68 42 -9 44 4 -24 -12
0000a0 0a 05 be dc be 1a f0 04 f4 c1 17 d7 d2 f9 23 d3
       10 5 -66 -36 -66 26 -16 4 -12 -63 23 -41 -46 -7 35 -45
0000b0 47 48 47 c4 b5 06 e4 55 be 96 24 f7 81 01 0d 5d
       71 72 71 -60 -75 6 -28 85 -66 -106 36 -9 -127 1 13 93
0000c0 2c 1b c3 00 5c 27 0f 20 f5 aa 22 33 7f cf 00 f7
       44 27 -61 0 92 39 15 32 -11 -86 34 51 127 -49 0 -9
0000d0 35 39 f3 f2 ad 26 fd df e6 c9 36 a3 91 49 b8 99
       53 57 -13 -14 -83 38 -3 -33 -26 -55 54 -93 -111 73 -72 -103
0000e0 cb 22 1e 2f c2 f9 c6 13 9e d7 e0 fb e2 ab 2a fa
       -53 34 30 47 -62 -7 -58 19 -98 -41 -32 -5 -30 -85 42 -6
0000f0 7f 55 6f 61 de 0d 27 98 cf bd d8 dc 1a d2 d1 c7
       127 85 111 97 -34 13 39 -104 -49 -67 -40 -36 26 -46 -47 -57

tfl.pseudo_qconst30 i1 [1, 1, 5, 32]
000000 9e e1 c0 7f 5d 71 0d 28 db ee 57 68 7f 7f 08 0a
       -98 -31 -64 127 93 113 13 40 -37 -18 87 104 127 127 8 10
000010 b5 00 2a 31 2f ae 26 a8 41 7f e7 29 d0 ed d3 81
       -75 0 42 49 47 -82 38 -88 65 127 -25 41 -48 -19 -45 -127
000020 ca ba bd 34 68 0e 60 ab ca e5 56 7f 31 c1 65 d9
       -54 -70 -67 52 104 14 96 -85 -54 -27 86 127 49 -63 101 -39
000030 d0 20 b6 e9 7f d9 7f 57 12 08 53 c0 81 7f c5 06
       -48 32 -74 -23 127 -39 127 87 18 8 83 -64 -127 127 -59 6
000040 7f 81 f4 05 b7 bf 81 11 33 06 8f 0d cc f7 9d f9
       127 -127 -12 5 -73 -65 -127 17 51 6 -113 13 -52 -9 -99 -7
000050 7f db d2 94 22 e3 f8 37 ba 26 c2 5e 06 64 81 bd
       127 -37 -46 -108 34 -29 -8 55 -70 38 -62 94 6 100 -127 -67
000060 65 3d e9 09 66 2f 87 3b 81 7f 7f fc b5 0e 7f d0
       101 61 -23 9 102 47 -121 59 -127 127 127 -4 -75 14 127 -48
000070 49 81 c9 81 49 23 76 52 00 12 34 7f 9c 48 d4 f7
       73 -127 -55 -127 73 35 118 82 0 18 52 127 -100 72 -44 -9
000080 65 fe 81 62 7f 81 cc 7f 65 f6 00 23 83 60 19 7f
       101 -2 -127 98 127 -127 -52 127 101 -10 0 35 -125 96 25 127
000090 d5 da 81 06 e9 7f 9f 81 81 e8 81 43 d7 25 74 e4
       -43 -38 -127 6 -23 127 -97 -127 -127 -24 -127 67 -41 37 116 -28

tfl.pseudo_qconst32 i1 [32, 1, 1, 8]
000000 81 b1 67 05 1e d8 ea fd 59 4d c5 81 d9 fb f0 13
       -127 -79 103 5 30 -40 -22 -3 89 77 -59 -127 -39 -5 -16 19
000010 20 81 0b e3 ef 94 ae 0b fe 07 3a 1c dc 7f 2a 55
       32 -127 11 -29 -17 -108 -82 11 -2 7 58 28 -36 127 42 85
000020 53 f2 9a 6c 26 af 7f 0e 16 2a 0e 62 7f dc 38 91
       83 -14 -102 108 38 -81 127 14 22 42 14 98 127 -36 56 -111
000030 bb 7f 86 d0 cc 95 35 cf 89 74 b9 dc 81 d3 f1 53
       -69 127 -122 -48 -52 -107 53 -49 -119 116 -71 -36 -127 -45 -15 83
000040 eb 53 3a 2d 03 cd 81 6d 03 aa 56 0c d8 50 1e 7f
       -21 83 58 45 3 -51 -127 109 3 -86 86 12 -40 80 30 127
000050 81 bc c0 ef e7 08 ca ef 21 81 62 a7 d3 2a 50 11
       -127 -68 -64 -17 -25 8 -54 -17 33 -127 98 -89 -45 42 80 17
000060 fc 81 22 38 2e d9 85 a1 b6 7f f1 9d 81 36 35 cc
       -4 -127 34 56 46 -39 -123 -95 -74 127 -15 -99 -127 54 53 -52
000070 f0 d6 27 5b 8b cd bd 81 db e7 89 9d 08 7f 18 48
       -16 -42 39 91 -117 -51 -67 -127 -37 -25 -119 -99 8 127 24 72
000080 34 25 99 b8 e1 d8 28 81 f0 c6 08 6d 7f 65 dd 83
       52 37 -103 -72 -31 -40 40 -127 -16 -58 8 109 127 101 -35 -125
000090 03 cb 5d 81 ff c3 4d 1e 39 05 7f 89 43 cf cb a6
       3 -53 93 -127 -1 -61 77 30 57 5 127 -119 67 -49 -53 -90
0000a0 19 81 3f 13 a9 e1 63 cc 16 b8 91 fe 23 81 53 01
       25 -127 63 19 -87 -31 99 -52 22 -72 -111 -2 35 -127 83 1
0000b0 dc 33 a6 19 f5 57 57 7f 62 1e 34 81 1e b6 8f fe
       -36 51 -90 25 -11 87 87 127 98 30 52 -127 30 -74 -113 -2
0000c0 0f 58 81 1f 04 54 b0 c2 e8 e9 e0 1f e4 f1 7f c5
       15 88 -127 31 4 84 -80 -62 -24 -23 -32 31 -28 -15 127 -59
0000d0 cd 20 ac 49 4f 81 b7 2e 70 72 81 a4 a2 54 35 a6
       -51 32 -84 73 79 -127 -73 46 112 114 -127 -92 -94 84 53 -90
0000e0 57 1b 81 0a c7 73 f7 aa cf b8 81 6c a0 7b 3e a8
       87 27 -127 10 -57 115 -9 -86 -49 -72 -127 108 -96 123 62 -88
0000f0 58 17 ea 4f d5 ce 81 8a e9 e9 14 de 7f e7 a9 fb
       88 23 -22 79 -43 -50 -127 -118 -23 -23 20 -34 127 -25 -87 -5

tfl.pseudo_qconst34 i1 [8, 1, 15, 1]
000000 23 33 cd d7 dc 4c 7f 81 a6 51 e3 34 15 97 20 98
       35 51 -51 -41 -36 76 127 -127 -90 81 -29 52 21 -105 32 -104
000010 d7 33 31 5f db 3b 3c df 9f 0a 9d cf 81 42 7f df
       -41 51 49 95 -37 59 60 -33 -97 10 -99 -49 -127 66 127 -33
000020 12 f6 4b 63 c1 8c 19 24 0c 94 d0 f8 0f e4 03 a9
       18 -10 75 99 -63 -116 25 36 12 -108 -48 -8 15 -28 3 -87
000030 c8 42 7f 6f fb cb 89 d4 f7 37 17 fb 98 91 52 c4
       -56 66 127 111 -5 -53 -119 -44 -9 55 23 -5 -104 -111 82 -60
000040 63 68 07 7f 54 43 61 b2 b8 4b 09 44 2e a7 01 49
       99 104 7 127 84 67 97 -78 -72 75 9 68 46 -89 1 73
000050 af 52 b3 5b f6 ab 7f c0 b3 11 b4 cf 45 0f 9a db
       -81 82 -77 91 -10 -85 127 -64 -77 17 -76 -49 69 15 -102 -37
000060 be 6e 2a 81 13 cb 0f 07 a0 76 37 ca da 22 c2 3d
       -66 110 42 -127 19 -53 15 7 -96 118 55 -54 -38 34 -62 61
000070 41 0e f1 d4 81 85 55 cc
       65 14 -15 -44 -127 -123 85 -52
